09ONNX/02/srcnn.onnx (onnx, 81395 bytes, 7 tensors)

conv1.weight f4 [64, 3, 9, 9]
000000 02 0f 1e 3e 19 9f 35 3d e2 a8 30 3d 69 22 78 3e
       0.15435413 0.04434118 0.04312981 0.24231876
000010 cb 35 a9 3e 98 3c a3 3e 95 0d a8 3c 1f 5f 31 be
       0.33048853 0.31882167 0.020514289 -0.17321442
000020 9e 0a 86 bd cf 74 c4 bd 4a 7e 36 be b7 d0 b3 bd
       -0.06544994 -0.09592592 -0.17821613 -0.087800436
000030 f2 93 b4 3c e4 64 3f 3d e3 28 65 3e 44 8d 11 bd
       0.022043202 0.046727076 0.22378878 -0.035535112
000040 ae e4 6c bd 71 aa ee bc f3 46 4a 3d 7f 7a 91 bd
       -0.057835273 -0.029134007 0.04938407 -0.071034424
000050 57 3b ec bd c3 93 7c 3a 63 70 8e bd 0f d5 06 3d
       -0.11534756 0.00096350553 -0.0695503 0.032918032
000060 26 31 73 3d 66 87 cc bc 80 7b 10 3d d7 ad bc 3d
       0.059373043 -0.024966907 0.03527403 0.09212845
000070 cf e4 1a 3a 0d ad e1 39 1a eb 83 bd b5 07 2f be
       0.0005908729 0.00043044277 -0.064413264 -0.17092784
000080 88 b5 0b bd a9 a8 b7 bc 99 ac db 3d a8 18 26 3d
       -0.03410867 -0.02241929 0.1072628 0.040550858
000090 61 e8 ec bb 99 c7 54 3d c6 37 95 bd b8 50 ac bd
       -0.00722985 0.051948164 -0.072860286 -0.084138334
0000a0 30 fd 76 be be 73 50 be c3 ea d7 bd da fc 09 3c
       -0.24120021 -0.20356652 -0.10542824 0.008422101
0000b0 9f 99 8c 3d 8b 8f a7 bc 96 f0 21 3e 13 f7 ec 3c
       0.068652384 -0.020454189 0.15814433 0.028926408
0000c0 e9 98 d9 bd c2 d3 30 be f3 fd 70 be df ac 0a bd
       -0.106248684 -0.17268279 -0.23534374 -0.03385627
0000d0 e5 67 82 bc c2 54 51 3c 06 a5 1a bd ba 17 e5 3d
       -0.015918681 0.0127765555 -0.037755035 0.11186166
0000e0 14 a2 ce 3d 7a 1a c3 3d 84 0c 6b bd bf 10 67 bd
       0.10089508 0.095265344 -0.057384983 -0.056412455
0000f0 34 b8 a7 bc 7c a2 3f 3d 64 a2 3b 3d 20 dc e8 bd
       -0.020473577 0.046785817 0.045809165 -0.113701105
000100 48 82 dc 3c 4a d1 de 3d 61 b0 21 3e 8b 95 8a bc
       0.026917592 0.108797625 0.1578994 -0.01691701
000110 d6 5d 1b 3d 97 97 0d 3e f9 0f 8e 3d ef 1b 06 bd
       0.037931286 0.13827358 0.0693664 -0.032741483
000120 11 de 9a bd af db f1 bc 1d ee 85 bd c7 cc 22 3d
       -0.07561887 -0.029523699 -0.06539557 0.039746072
000130 29 0c e4 3c 95 89 31 bd fa 27 fd 3b 8b cd 10 3d
       0.02783783 -0.0433441 0.007725713 0.03535227
000140 f1 82 cd bd e9 20 07 3e 8f 03 81 3d 82 46 61 3d
       -0.10034741 0.13196148 0.06299507 0.054998882
000150 f9 7e 51 3e e8 5e 85 3e a4 bf aa 3e a9 bd b4 3d
       0.20458592 0.2604897 0.33349335 0.08825237
000160 e5 de 09 be 67 0e 4b bd a1 51 df bd 43 f4 92 be
       -0.13463934 -0.049574282 -0.10904241 -0.28701982
000170 a9 1b 1c be e7 07 05 bd e4 10 cf 3c 63 70 6f 3e
       -0.15244927 -0.03247824 0.025276609 0.23382716
000180 a6 15 97 3d 7e 89 53 bd dc bb d9 bd 21 3d a8 3d
       0.07377176 -0.051644795 -0.106315345 0.082147844
000190 c5 8a 2a be bc 9b 05 be 46 7a 8d bc 3b 50 90 bd
       -0.16654499 -0.13047689 -0.017270219 -0.07046553
0001a0 d9 3f 84 3d 3f ee f1 3c 72 86 6c bb 66 f0 27 3d
       0.064574905 0.02953255 -0.0036090878 0.041000746
0001b0 cb 23 1b 3e a9 cf 0c 3d b9 56 a9 bd 12 36 9e bd
       0.15150373 0.034377728 -0.08268494 -0.07725157
0001c0 f0 1e 2b be 64 25 1c 3d 97 ce 96 3d 01 ed aa 3d
       -0.1671102 0.038121596 0.07363623 0.08345986
0001d0 71 8b 2b 3d d7 7f e5 3d 66 0d 01 3d 50 2f 59 3d
       0.04188103 0.11206024 0.03150692 0.053023636
0001e0 ba 21 24 be 73 c1 7c be a0 69 3b be f0 54 a7 bd
       -0.1602849 -0.2468317 -0.18302011 -0.081704974
0001f0 8d 5e 73 3d c4 84 bb 3d 3c 1a df bb 5e 2a 45 3d
       0.059416343 0.091561824 -0.0068085473 0.048136108
000200 5f 72 bd 3d 10 95 06 be 49 8f 85 be 8b 3a 20 be
       0.0925033 -0.131428 -0.2608588 -0.15647332
000210 69 9d 84 bd 3d a4 58 bc 44 0f 39 bc cb 49 8b bd
       -0.06475336 -0.013222751 -0.0112951435 -0.06801184
000220 f6 13 27 3e 48 f3 05 3e 0c 02 b4 3d 79 36 83 bc
       0.16316208 0.13081086 0.08789453 -0.016017186
000230 45 9d 99 bd 00 8e c1 ba a1 72 d8 3d 96 cb 63 3b
       -0.075007 -0.0014767051 0.10568739 0.0034758798
000240 07 c1 d6 bd fb c5 13 3d 06 90 75 3d ec 8c 2e 3d
       -0.10486036 0.03607748 0.059951805 0.042614862
000250 65 a3 eb bb 7a 97 34 bd 00 60 69 3d 29 c9 8c 3c
       -0.007191109 -0.04408977 0.05697632 0.017185764
000260 b1 fc be 3c 4b 49 04 be 13 c6 89 3d ea 5c 1d bd
       0.023313852 -0.12918584 0.06727233 -0.038418688
000270 be 1f 0b 3d 6c c8 7b 3b 58 09 2e bc 54 1a 27 3d
       0.03396582 0.0038419021 -0.010622345 0.040796593
000280 80 29 b8 3c 71 d1 9d bd fb b9 22 3e 2b b5 9b 3d
       0.022480726 -0.077059634 0.15891258 0.076029144
000290 2f 80 1c 3c 40 7a 2b 3e f5 7d 06 3e 8c 55 85 3e
       0.009552046 0.16745853 0.13133986 0.2604183
0002a0 3d bc 9a bc 5e 05 d9 bd 46 95 99 bc 03 f6 a2 bd
       -0.018888587 -0.10596727 -0.018747937 -0.07957079
0002b0 bc 2b 5d be ee e8 43 be c0 0c 56 bd 1d 18 35 3c
       -0.21598715 -0.19131824 -0.052258253 0.011053112
0002c0 fd 65 29 3e 5a be ec b9 3a 24 c2 bd e5 ec 98 bd
       0.16542812 -0.0004515525 -0.09479566 -0.07467059
0002d0 59 9f b3 3d 86 1a b3 bd d9 a9 02 3b 8b 00 b3 bc
       0.087706275 -0.08745293 0.0019937663 -0.021850845
0002e0 b2 a6 22 3d 28 05 26 3e 7c c9 44 3d b7 69 0a bd
       0.039709754 0.16212904 0.048043713 -0.033792224
0002f0 71 12 dc 3d 82 2c f8 3c b8 68 f1 bc dc 0b 61 3d
       0.10745705 0.03029466 -0.02946888 0.05494295
000300 9f 5c 83 bd b4 e0 75 bd 83 be 06 3d 07 98 1e bc
       -0.064141504 -0.060028747 0.03289653 -0.009679801
000310 30 4d 8b bd 16 1e 80 bc 63 4c 4d bd ad 16 d7 3c
       -0.06801832 -0.015639346 -0.050121676 0.02625593
000320 43 d4 72 3d d2 7f b3 bd f0 db 63 be 9f db 00 be
       0.05928446 -0.08764614 -0.22251868 -0.12583779
000330 1d 43 a7 bd ac 17 8f 3c 07 38 a1 3c 83 47 55 3c
       -0.08167098 0.017467342 0.019680036 0.013017538
000340 7c 47 fd 3c 20 a7 67 3d 8b 83 a5 bd c4 c9 20 be
       0.030917875 0.056555867 -0.080817305 -0.15701967
000350 a6 8c 46 bd bf ba 8d bd ff ec 9b 3c 6e 31 d2 3b
       -0.048473977 -0.069203846 0.019033907 0.006414584
000360 58 7c cb ba af b0 9b 3d 8b 1c 20 3e 6d cc 9a 3d
       -0.0015524728 0.07602059 0.15635888 0.075585224
000370 61 30 b6 bc dc 37 b6 3c 2e 57 b8 bc 7f e3 e9 3d
       -0.022239866 0.022243433 -0.022502508 0.114203446
000380 f1 90 dd 3d 1f dd cb bd fb 08 79 3c 60 d0 6f 3b
       0.10818661 -0.09954285 0.015199895 0.0036592707
000390 40 fb f9 3a 74 b1 8b bc 6b 7f dd bb b7 18 88 bd
       0.0019072071 -0.01705239 -0.006759574 -0.06645339
0003a0 48 d8 82 bc 16 4e 8f bc 82 9c 10 bc c4 84 c3 3c
       -0.015972272 -0.017493289 -0.008826377 0.023867019
0003b0 36 a2 0e bd 75 64 d7 bb dd 85 38 3d f1 47 20 3d
       -0.034822665 -0.0065732547 0.045049537 0.03913111
0003c0 59 f0 e2 3c 02 eb 59 3d a3 53 52 bd f1 c8 8d bc
       0.027702497 0.053202637 -0.051349293 -0.01730773
0003d0 69 bc b0 39 62 d3 ae 3b 4c d9 57 bc f1 25 4e bd
       0.00033709712 0.0053352574 -0.013174366 -0.050329152
0003e0 23 6f 9b 3c 33 b3 d5 3c fe 9b be 3c 1a 45 36 3c
       0.018973893 0.026086425 0.023267742 0.0111248735
0003f0 85 f2 28 bc 32 8d d4 bc 7d 31 b1 ba 03 de 15 bd
       -0.010311727 -0.025946233 -0.0013518777 -0.03658868

conv1.bias f4 [64]
000000 6c 94 c1 bc fc 97 cc ba 08 eb 94 3a 7b cf b4 3b
       -0.023630343 -0.001560926 0.0011361549 0.0055178977
000010 78 7a dd ba e7 2c 1b 3d 51 e2 34 bb 6b 9e b3 bb
       -0.001689746 0.03788462 -0.0027600715 -0.0054815314
000020 0b 96 89 bb c9 8a 68 3b 24 43 2b 3e fb d0 35 3d
       -0.0041987947 0.0035483113 0.16724831 0.044388752
000030 b2 41 e1 bb 94 85 a4 bc 9e 6b 23 bc 44 92 3b ba
       -0.0068742866 -0.020083226 -0.009974388 -0.0007155279
000040 da 0c d2 bb 2a e9 49 b9 87 56 7b 3c 97 19 22 3d
       -0.0064102234 -0.00019255714 0.015340454 0.039575186
000050 50 c0 62 bb af 06 3b 3c 4c de 36 bc 83 2a b3 3d
       -0.003459949 0.011415168 -0.011161398 0.08748343
000060 28 19 fd 3c 9b d8 07 3e ba 56 0a 3c 2c 8d a5 bc
       0.030895784 0.13266222 0.008443529 -0.020208918
000070 7f fc 67 3e ec 36 a5 3c 7f b3 97 bb f7 e2 eb 3a
       0.22654913 0.02016779 -0.004629552 0.0017996718
000080 99 ac 8a 3e ab ad 19 3e fb 36 50 3d 89 2a e1 3b
       0.27084807 0.15007655 0.050833683 0.0068715257
000090 aa 83 d7 3c 65 b1 c0 3d 99 40 23 3d f4 9e bb bb
       0.0263079 0.09408835 0.039856527 -0.005725736
0000a0 5a dd 87 bd 1e 9d db bb f7 74 91 3e ae 48 fa 35
       -0.06634016 -0.0067020794 0.2840955 1.8647604e-06
0000b0 2d ec b3 3c b5 bf 15 bc 38 41 8d 3a 9c c8 b6 3d
       0.021963203 -0.009139945 0.0010776883 0.08924982
0000c0 bd ec af bc ca 7a fb 39 5c c0 44 bd 36 fc c6 bb
       -0.02147519 0.00047965936 -0.04803501 -0.0060725464
0000d0 e7 1c f5 3b e0 82 e8 3c 76 0f d8 ba d1 b6 b6 bb
       0.007480252 0.028382719 -0.00164841 -0.0055759926
0000e0 c5 01 77 3d f5 d2 0b 3c eb d4 f9 ba 83 1c f3 bb
       0.060304422 0.008534183 -0.0019060647 -0.0074191703
0000f0 fc 25 ce b7 90 ec 84 3c c8 a4 d2 bb 02 49 2d 3d
       -2.4574802e-05 0.016226083 -0.006428335 0.042305954

conv2.weight f4 [32, 64, 1, 1]
000000 bc 44 0d 3e 42 63 cc 3d 6c 7e 07 be cb ca cb 3d
       0.13795751 0.099798694 -0.1323182 0.09950789
000010 15 b7 bc 3d 29 eb 2c 3c 2e d3 b8 bd cc dd 0f 3d
       0.092146076 0.010554113 -0.09024654 0.03512363
000020 22 38 0e 3d 56 cf 02 b9 4d 85 6c bd 6c ce 89 3c
       0.0347215 -0.00012475005 -0.057744313 0.016822062
000030 b2 83 cf 3c 72 94 4d bd d5 73 85 be c9 12 b0 3d
       0.025331352 -0.050190397 -0.26064935 0.08597333
000040 8d c8 19 3e 11 0e 13 3d dd d1 88 3d 3a a3 96 3b
       0.1501791 0.035902087 0.06680653 0.004597095
000050 c6 81 f0 3c b9 d9 be 3d 23 0c 9a bc 81 21 22 be
       0.029358756 0.09318871 -0.018804615 -0.15833093
000060 51 88 e8 bb 34 59 b2 3d f2 91 d2 bc c6 98 30 3d
       -0.0070963283 0.087084204 -0.025704358 0.043114446
000070 8f c4 08 3e f3 56 10 be c8 ae f6 bd f7 e8 8a 3d
       0.13356231 -0.14095668 -0.12045056 0.06782716
000080 5d d2 33 bd 6a 24 31 bc 53 e4 5e bd f6 b5 42 3c
       -0.04390179 -0.010811904 -0.054416966 0.011884203
000090 0d 85 13 3d 22 8e 82 3d 8d 4f b9 bd cb f0 32 bb
       0.03601556 0.06374766 -0.09048376 -0.0027304168
0000a0 60 89 ae 3d 64 47 3a 3d 20 22 a2 bd e0 47 82 b9
       0.08522296 0.04547824 -0.07916665 -0.00024849083
0000b0 05 fc 48 3d 2e 01 b5 3d cc ff 34 3e 2a 7b cd 3d
       0.04906847 0.08838116 0.17675704 0.10033257
0000c0 d1 ce 5d bc cb 67 8a 3d 01 1d 5f 3c 01 0b 98 3b
       -0.013538078 0.06758078 0.013617755 0.0046399836
0000d0 9c 56 05 be 49 ab 88 bd 41 1a c2 3d c5 bf 53 3d
       -0.1302132 -0.06673295 0.09477664 0.051696558
0000e0 7e 68 eb bd d6 04 68 3e df 50 25 be f2 8c ec bc
       -0.1149454 0.22658095 -0.16144131 -0.028875802
0000f0 ae 7e d7 3d 66 c3 92 3c df c4 13 3c de d6 62 3d
       0.10522209 0.017915439 0.009019106 0.055380695
000100 0c 0b 82 3d 74 67 59 bd 10 b1 e5 3d 28 06 b7 bb
       0.06349763 -0.053077176 0.112154126 -0.0055854507
000110 0f 0b ed 3d 3a 2c af 3c dd f5 39 be dd be 75 3c
       0.11574375 0.021383394 -0.18160196 0.014999119
000120 58 84 16 be 15 58 5c 3d ff f2 06 3e c1 d4 1d 3c
       -0.14698923 0.05379494 0.13178633 0.009633244
000130 46 4b 1b be c0 22 90 3e 2b 65 00 bd aa c4 9b 3e
       -0.15165433 0.28151512 -0.03134648 0.3042348
000140 85 d9 3e bb 4f 46 c6 3a e1 fd e8 3d a0 73 8d 3c
       -0.002912135 0.0015127155 0.113765486 0.017267048
000150 40 28 3a 3d 55 a8 40 bd 82 66 cc bd 83 1e bb bc
       0.04544854 -0.047035534 -0.09980489 -0.022841698
000160 63 bd cf bd ce 35 d1 bd dc 6b 3f bc 58 2f b5 bd
       -0.101435445 -0.102153406 -0.0116834305 -0.08846921
000170 0d 26 22 3d c8 37 b4 bd fd 90 9d bd 85 40 2d bc
       0.03958707 -0.08799702 -0.0769367 -0.010574465
000180 a9 ce 2c 3c 72 9a a2 bd 88 47 a4 bd 2d d9 fa 3c
       0.0105473185 -0.07939614 -0.08021456 0.030621136
000190 f9 e8 68 bc 17 bb 94 3e a1 14 2c be 9b 9b d8 3d
       -0.014215701 0.29048988 -0.16804744 0.105765544
0001a0 83 be 50 bd 68 6e fb 3c 39 9a 91 3b f7 10 bb bd
       -0.050962936 0.030692294 0.0044434336 -0.09134095
0001b0 32 64 24 bd 06 6d ff bd 89 59 b0 3d 58 a1 40 3b
       -0.040134616 -0.124719664 0.086108275 0.0029393043
0001c0 ac 6b 06 3e 46 33 c5 be f5 97 66 3d 0a a4 f1 3d
       0.13127011 -0.3851568 0.05629726 0.11798866
0001d0 89 a0 79 bd 00 8c 18 bd 35 35 0a 3c 26 e4 be 3c
       -0.060944114 -0.03724289 0.008435537 0.023302149
0001e0 31 c4 f9 bd 6e 70 ab 3d 07 61 3f 3c 9a ae 71 3e
       -0.12195624 0.08371054 0.011680848 0.23601761
0001f0 5e 1b 97 bd 8e c6 1d bb 9f f6 4a 3d 70 5a 8b 3d
       -0.07378267 -0.0024074647 0.049551602 0.06804359
000200 16 fa 65 3e 64 0f 1c 3a fa 77 4f bd 8a 10 08 3d
       0.22458681 0.0005953221 -0.050651528 0.033218898
000210 a1 29 06 be 64 cc d0 3d 12 1e 65 bb 23 4e a9 3e
       -0.13101818 0.101952344 -0.003496055 0.33067426
000220 3d b7 19 3d 78 3c 94 bd f7 c5 9a bd 09 5e 50 bd
       0.037528265 -0.07238096 -0.0755729 -0.05087093
000230 56 68 be 3c a6 8f 6a bd 48 54 c7 3d d8 6e c8 bb
       0.02324311 -0.0572659 0.09732872 -0.006116729
000240 bb 90 8f bd 5c ed 2d 3e 64 a5 a7 3d 2b b9 a7 bd
       -0.07010027 0.16985077 0.08185843 -0.08189615
000250 6c e4 a0 3d 17 32 45 be 6d 14 e5 bd e9 3d ae 3d
       0.07856068 -0.19257389 -0.111855365 0.08507902
000260 1c a7 bf 3d b6 43 dd 3c 12 aa c4 3d 6d b2 28 3e
       0.093580455 0.027009826 0.09602751 0.16474314
000270 3f e4 41 3c 6b 33 64 3d 83 ed d8 bc 37 f1 a3 3d
       0.011834203 0.0557131 -0.026480442 0.080049925
000280 63 89 76 bc c5 f4 47 bd be ca ba 3d ab 21 61 bb
       -0.015047404 -0.048817415 0.09120701 -0.0034352343
000290 dd d7 4c 3e 7d 5b 21 3d 5a f8 e3 38 01 b8 91 3d
       0.2000422 0.03939389 0.000108704626 0.07115174
0002a0 11 e9 c3 3d 1d 3d d3 3d 36 c0 2b bd f4 62 5e bb
       0.09565938 0.10314391 -0.041931354 -0.0033933492
0002b0 41 80 40 3d 13 73 24 3e c8 5f a9 3d 9f c3 f5 bd
       0.046997312 0.16059522 0.08270222 -0.120002024
0002c0 10 31 9e 3d 3a 9f cc 3e 49 5f 1d bd 76 d1 82 3c
       0.07724202 0.3996523 -0.03842095 0.01596902
0002d0 c2 e1 d9 bc c0 85 a4 bd 1a 41 fd 39 4a 93 03 bc
       -0.026596908 -0.08033323 0.00048304425 -0.008030722
0002e0 d7 5f 97 bd 9b 43 6a bd 20 1e 7c 3b b5 a1 1f be
       -0.07391327 -0.05719338 0.0038470104 -0.1558903
0002f0 61 90 88 bd c0 91 99 3d 26 cb 53 bd 83 76 60 bd
       -0.06668163 0.07498503 -0.05170741 -0.05480052
000300 ed 9f 5a 3e cc 22 54 be 18 c8 2d 3b 9b 26 16 be
       0.2135007 -0.20716399 0.002651697 -0.14663164
000310 8c bf bd bd 72 bb 22 3d c9 a5 e9 3c 20 a4 23 be
       -0.0926505 0.039729543 0.028521435 -0.15980577
000320 4f 1a b0 3c de a6 a9 bd 79 1d 8c bc 22 f7 1f bd
       0.02149692 -0.082837805 -0.017103897 -0.039054044
000330 0a a4 6b be 56 64 72 bd f1 d9 18 3e fa c9 b8 3e
       -0.23011795 -0.05917772 0.14926888 0.36091596
000340 db 69 37 3e a6 50 bf bc 08 dc 9e bd f3 a1 f2 bb
       0.17911474 -0.023353886 -0.077568114 -0.0074045598
000350 19 3f fd 3c 95 e7 03 bd 81 dc e6 bc 06 d6 26 3d
       0.030913876 -0.032203276 -0.028181316 0.040731452
000360 df be fb bd e7 66 70 3d 6b 1e 2d 3d 6f fa 26 bd
       -0.12292265 0.058691885 0.042265337 -0.040766176
000370 11 41 c9 3c f0 59 67 bd d0 79 83 3e 7a 5e 7c 3d
       0.024567159 -0.056482255 0.25678873 0.061613537
000380 18 8d 08 3e 15 d9 d4 3c 42 9e fe 3c 50 d3 6e bd
       0.13335073 0.025982419 0.031081323 -0.058306992
000390 34 bd 03 3e ca 8a b3 bc 1d 01 36 3d ee a9 2e 3d
       0.12865144 -0.021916766 0.044434655 0.042642526
0003a0 cb 33 8f 3d 1e c3 f9 bd 59 fa 10 be 48 4d 2a 3d
       0.069923006 -0.12195419 -0.14158 0.041577607
0003b0 7a e5 88 3d bc 4c 28 3e 6c c1 b0 bd 2b 9d f3 bd
       0.06684394 0.16435522 -0.08630642 -0.11895212
0003c0 1c 5a 3a bd af 25 b5 3d 59 7b 32 3d 39 84 b6 3d
       -0.04549609 0.08845078 0.043574665 0.08911938
0003d0 77 88 e4 3d f5 da 94 bd 9e 02 1c bd 17 3b 09 3e
       0.11158841 -0.07268325 -0.038088433 0.13401447
0003e0 82 7e f2 bd 2a 5b 34 be aa 72 89 3d 56 0a f9 bd
       -0.11840536 -0.17612901 0.067113236 -0.121601745
0003f0 3d 00 2b 3d 3f 9f 0e bc e3 a4 13 be 58 e7 42 3c
       0.041748274 -0.008704959 -0.14418368 0.011895977

conv2.bias f4 [32]
000000 1c 82 b3 3c 50 4d 9f bc 97 c5 96 3d 50 b5 7f bb
       0.021912627 -0.019446045 0.07361906 -0.0039017983
000010 94 70 13 3c 3c 7f 38 3d fa b1 aa 3d fc f8 81 3d
       0.008999009 0.045043215 0.083347276 0.06346318
000020 be c7 c6 bd 10 7c 10 3b 03 cd 47 bd 8f ca f6 bc
       -0.097060665 0.0022046603 -0.0487795 -0.030125884
000030 55 2d dc 3c 30 61 bb bd 08 21 c2 bd f2 68 0f bd
       0.026877085 -0.091493964 -0.094789565 -0.035012193
000040 51 97 ea bd 87 4c 9d bc 05 18 8f bc 0e fc 82 3d
       -0.114546426 -0.01920153 -0.017467508 0.06395732
000050 af ec 5e bc d9 d5 d9 3d 89 d9 8a 3d 6e 86 57 bd
       -0.013606234 0.10636491 0.06779773 -0.052618437
000060 f2 cf af bb 76 5e b4 3d 39 24 30 3d e3 85 ff 3c
       -0.005365365 0.088070795 0.043003295 0.031191772
000070 c8 93 b0 bd cb 9e b6 bc 1b 9b 97 3d a5 04 55 bc
       -0.08621937 -0.022292515 0.07402631 -0.013001596

conv3.weight f4 [3, 32, 5, 5]
000000 d7 0b 2a 3d 30 0c a2 bc 15 68 0d bb 2e 0f d9 3c
       0.041515198 -0.019781202 -0.002157693 0.026496496
000010 b2 71 bd bb 15 16 6f b9 ad 31 6c bc 73 00 51 3c
       -0.005781376 -0.00022801042 -0.0144161405 0.012756455
000020 ae 5b 00 3c eb 30 d7 39 32 e1 14 bc 76 43 29 bb
       0.007834358 0.00041044442 -0.009086894 -0.0025827563
000030 c4 60 c6 3c 25 9d 1d bc e4 d5 52 bd b9 d0 bb 3c
       0.024216063 -0.009619986 -0.051473513 0.022926675
000040 17 34 d9 3c 6e 15 9e 3c 38 46 af bc 37 86 79 bc
       0.026514096 0.019297328 -0.021395788 -0.015229753
000050 98 d6 62 3c d4 cf 28 bd 03 7e 5a 3c f1 92 44 3c
       0.013845108 -0.041213825 0.013335708 0.011997924
000060 77 68 35 bb 38 41 3e bc a3 65 43 bd 89 c0 ab bd
       -0.0027680674 -0.011612229 -0.04770435 -0.083863325
000070 bc d8 37 ba ca 64 ac 3b 37 7a ae 3c 1d e5 76 bd
       -0.0007013192 0.0052610384 0.021298511 -0.060277093
000080 68 f7 6c bd 9a 85 3b bd f5 a2 48 3c e1 35 13 3d
       -0.057853132 -0.04578171 0.012245883 0.035940055
000090 5c 6f 16 3d 8b db 35 3d 0f df 1f 3d 05 a7 a3 bc
       0.036727294 0.044398826 0.039031085 -0.019977102
0000a0 eb 46 92 3d f0 d3 8c 3d 9d 80 84 3d 41 c8 f8 bb
       0.07142433 0.06876361 0.064698435 -0.0075922315
0000b0 c6 a7 93 bc cb 78 4c 3d a7 0f 92 3d 48 54 97 3c
       -0.018024337 0.049919885 0.07131892 0.018472806
0000c0 11 06 a3 bc e1 f3 3c bc 91 7f 11 bc 2c f6 86 ba
       -0.019900354 -0.011532755 -0.008880512 -0.0010296754
0000d0 71 95 7e b9 cb 47 0d bd f9 1f 88 bc 11 e2 1d 3c
       -0.00024278999 -0.034492295 -0.016616808 0.009636418
0000e0 97 37 ca 3c 2f c2 92 bc 42 ca 27 3d b2 11 b2 3c
       0.02468471 -0.01791486 0.040964372 0.021736953
0000f0 5e 26 e2 bc ff 67 0f bd 23 c4 78 bd 4d 05 b7 bc
       -0.027606186 -0.035011288 -0.060733926 -0.022341395
000100 9c 23 36 bd d3 49 24 bc 8c 73 6a bc a4 ff f2 bc
       -0.044467553 -0.010027367 -0.014309775 -0.029662915
000110 fd 0b 23 bb c9 d6 be bc c9 45 1d 3d 18 75 0a 3d
       -0.0024878972 -0.023295777 0.03839663 0.033803076
000120 0d b5 95 bc cc 53 0d 3b e8 b1 31 bd cb 54 40 bd
       -0.018274808 0.002156484 -0.043382555 -0.046955865
000130 c5 c5 e2 bc 16 96 32 bc 71 52 e7 bc 32 c6 da bc
       -0.027682194 -0.010900041 -0.028237553 -0.026705835
000140 8a 04 26 3c d7 35 17 bb 99 4f 79 3d 1e dd 87 3d
       0.010132918 -0.0023072863 0.060866926 0.06633972
000150 13 0e 6e 3c 24 9a f7 3b e7 47 a1 bd ed 56 e7 3b
       0.014529723 0.007556217 -0.078750424 0.007059923
000160 61 81 95 3d 49 87 04 bc a4 0d 62 bc 99 38 c4 bc
       0.07300068 -0.008088895 -0.0137971975 -0.02395277
000170 8e ec b3 3c a1 be bc 3b b9 c8 20 bd f5 04 9e bc
       0.021963384 0.0057600294 -0.039253924 -0.019289473
000180 32 e3 13 3d 57 f0 01 3d b2 39 c6 bc ee 57 c2 bc
       0.036105342 0.031723347 -0.024197433 -0.023723569
000190 0c 4d e4 bb d7 90 c4 bb 3e 6d 12 3d 92 60 b3 bc
       -0.0069671925 -0.0059987116 0.035748713 -0.021896634
0001a0 02 c4 57 bd 24 1c 55 39 9a 64 6e 3c 84 5c 8e 3d
       -0.052677162 0.00020323746 0.0145503525 0.0695124
0001b0 30 39 90 3d 0a c4 61 bb 48 ca d1 3c ab 3f 4e 3d
       0.07042158 -0.0034449124 0.02560915 0.050353687
0001c0 f7 7d 07 3e a8 42 b8 3d 9f 45 67 3c a4 be 4d 3d
       0.13231646 0.08997089 0.01411572 0.050230637
0001d0 25 09 71 3d a6 80 b4 3d e8 58 93 3d 9a a2 5d 3c
       0.05884661 0.088136 0.07194692 0.013527537
0001e0 5a 5d d8 3c 11 76 22 3d 71 ad 14 3d a5 ea 89 3d
       0.026411701 0.03966338 0.03629822 0.06734208
0001f0 74 55 15 3b 7a 83 25 3d 44 75 6c 3d b0 75 8c 3d
       0.002278653 0.04040859 0.05772902 0.068583846
000200 c6 d8 54 3d 9e d1 55 3d 44 ec 04 b9 0d 5c 96 3c
       0.051964544 0.05220186 -0.00012676517 0.01835444
000210 3e 86 8e 3d 43 59 57 3d d9 1d aa 3c d1 0b fc 3a
       0.069591984 0.05257536 0.020766186 0.0019229596
000220 4a d3 11 38 05 06 fe 3a 73 e8 82 3c f4 69 2a 3d
       3.4767472e-05 0.0019380456 0.015979981 0.04160495
000230 ce aa fc 3c 23 c0 29 bd db 19 b9 bd f8 81 3e bd
       0.030843165 -0.041443 -0.09038135 -0.046510667
000240 02 70 d1 3c 67 f9 5d bd 4a 16 ba bd c9 01 9a bd
       0.025566105 -0.054192927 -0.090862826 -0.07519872
000250 56 b9 71 bd 0c f2 0a bc cb 45 94 bb 97 9d 4f 3b
       -0.05901464 -0.00848056 -0.0045249215 0.0031679624
000260 2f d7 1b bc f9 b8 90 bb e6 6f 6b bd ca af 15 bc
       -0.009511753 -0.0044165817 -0.05747976 -0.00913615
000270 8b 54 ba bc 71 db 79 bd 7d 65 3a bd 55 c8 5d bd
       -0.022745391 -0.06100029 -0.045506943 -0.05414613
000280 f7 99 0a 3c 47 7b 3f bc 54 1e 18 3c fd a2 22 bd
       0.00845956 -0.011687106 0.009284575 -0.03970622
000290 9b f4 b2 bd 00 18 65 3d 97 75 13 3d f9 47 b9 3c
       -0.08738061 0.05593109 0.036000814 0.022617327
0002a0 a6 2e 13 bd 11 0a 19 bd 2f af af 3d 11 77 40 3d
       -0.03593316 -0.037363116 0.085783355 0.04698855
0002b0 9e 58 d5 bb 7e 45 45 bc a2 08 da bb ab ae 42 bd
       -0.006510808 -0.012040494 -0.006653861 -0.047529858
0002c0 c0 ce 66 bc ba df d6 bc 54 62 7f bd b6 f1 4f 3d
       -0.014087379 -0.026229728 -0.062349632 0.050767623
0002d0 85 7b 57 3d 6c cd 2a 3d 1e 71 47 3d 77 6d 41 3c
       0.05260803 0.04169981 0.04869186 0.011805884
0002e0 4e 59 a3 bb 5d 2a 9e 3d 84 b7 56 3d 1a 45 34 3c
       -0.004985011 0.07722924 0.052421108 0.011002803
0002f0 e2 31 07 bd 8b b5 71 bd 8d 96 b7 3d e3 b2 77 3d
       -0.033006556 -0.059011023 0.08964262 0.060473334
000300 f4 35 04 ba ca 7a 08 bd b8 8b db 3a 6d ff 82 3d
       -0.000504344 -0.033320226 0.0016750013 0.06396375
000310 f5 b2 92 bc 07 40 05 be 30 b0 ba bd 08 53 5e bd
       -0.017907599 -0.13012706 -0.09115636 -0.054278404
000320 05 35 47 3d fb e8 c1 bc ab 0a 18 bd 01 ea 87 bd
       0.048634548 -0.023670664 -0.03711955 -0.066364296
000330 78 32 f8 3b ef 04 91 3d 7e 6b a6 bc 56 2c 98 bd
       0.0075743757 0.07081019 -0.020314928 -0.074303314
000340 ae db 8a bb f3 a6 db 3b 6b 31 47 3d c4 61 26 bd
       -0.0042376136 0.0067032515 0.048631113 -0.04062058
000350 d8 73 37 bd 6c c5 04 bd d6 66 f7 3c db 63 6f 3d
       -0.04478821 -0.03241484 0.030200403 0.05844484
000360 63 88 07 3c ec 05 3e bc 45 a7 a0 b7 22 99 33 3d
       0.008272263 -0.011598092 -1.9151377e-05 0.04384721
000370 50 97 8d 3c 25 c2 35 bb 5a f8 94 bc 0e 6a a4 bc
       0.017284065 -0.0027734127 -0.01818483 -0.020070102
000380 86 b8 5f 3d 73 a6 34 3d c1 62 31 3c e4 3a 74 bd
       0.054619335 0.04410405 0.010826767 -0.059626475
000390 87 07 0c bd 45 55 8f bc b5 c2 e1 3c 7f 36 06 3d
       -0.034186866 -0.017496714 0.027558664 0.032766815
0003a0 c5 2a 5b bd e0 13 e6 bd 78 68 ac bc fe 97 ac bc
       -0.053507585 -0.112342596 -0.021045908 -0.02106857
0003b0 56 63 ef 3d e7 e4 21 bd c5 6a a4 bd 47 6a a2 3d
       0.11688869 -0.03952494 -0.08028177 0.07930427
0003c0 f2 1e ac bd dc 84 e9 3c 68 25 07 bd 8f 2a 49 bd
       -0.0840434 0.028505735 -0.032994658 -0.049112853
0003d0 87 84 34 3d 68 11 e5 bc 5c 86 86 3b cd 74 8b bd
       0.0440717 -0.027962402 0.0041053724 -0.06809387
0003e0 e5 50 27 3d 0e 6f 92 3d 61 dd c2 3c 3a 64 e2 3c
       0.04084863 0.07150088 0.023787202 0.027635682
0003f0 f2 50 00 3c 13 b2 ff 3c 58 92 82 3c c3 eb b5 3b
       0.007831799 0.031212842 0.015938923 0.0055517866

conv3.bias f4 [3]
000000 96 db 7c 3b 8e 10 54 3c c7 fa 26 3c
       0.0038583032 0.0129434 0.010191626

17 f4 [4]
000000 00 00 80 3f 00 00 80 3f 00 00 40 40 00 00 40 40
       1.0 1.0 3.0 3.0
